Creating Model
MoCo(
  (encoder_q): ECG_SpatioTemporalNet(
    (firstLayer): Sequential(
      (0): Conv2d(1, 32, kernel_size=(1, 7), stride=(1, 1), padding=(0, 3))
      (1): BatchNorm2d(32, eps=1e-05, momentum=0.1, affine=True, track_running_stats=True)
      (2): ReLU(inplace=True)
      (3): MaxPool2d(kernel_size=(1, 7), stride=(1, 7), padding=0, dilation=1, ceil_mode=False)
    )
    (residualBlocks_time): Sequential(
      (0): temporalResidualBlock(
        (conv1): Conv2d(32, 32, kernel_size=(1, 3), stride=(1, 1), padding=(0, 1), bias=False)
        (conv2): Conv2d(32, 64, kernel_size=(1, 3), stride=(1, 1), padding=(0, 1), bias=False)
        (relu): ReLU(inplace=True)
        (drop): Dropout(p=0.5, inplace=False)
        (batchNorm1): BatchNorm2d(32, eps=1e-05, momentum=0.1, affine=True, track_running_stats=True)
        (batchNorm2): BatchNorm2d(64, eps=1e-05, momentum=0.1, affine=True, track_running_stats=True)
        (resampleInput): Sequential(
          (0): Conv2d(32, 64, kernel_size=(1, 1), stride=(1, 1), bias=False)
          (1): BatchNorm2d(64, eps=1e-05, momentum=0.1, affine=True, track_running_stats=True)
        )
      )
      (1): temporalResidualBlock(
        (conv1): Conv2d(64, 64, kernel_size=(1, 3), stride=(1, 1), padding=(0, 1), bias=False)
        (conv2): Conv2d(64, 128, kernel_size=(1, 3), stride=(1, 1), padding=(0, 1), bias=False)
        (relu): ReLU(inplace=True)
        (drop): Dropout(p=0.5, inplace=False)
        (batchNorm1): BatchNorm2d(64, eps=1e-05, momentum=0.1, affine=True, track_running_stats=True)
        (batchNorm2): BatchNorm2d(128, eps=1e-05, momentum=0.1, affine=True, track_running_stats=True)
        (resampleInput): Sequential(
          (0): Conv2d(64, 128, kernel_size=(1, 1), stride=(1, 1), bias=False)
          (1): BatchNorm2d(128, eps=1e-05, momentum=0.1, affine=True, track_running_stats=True)
        )
      )
      (2): temporalResidualBlock(
        (conv1): Conv2d(128, 128, kernel_size=(1, 3), stride=(1, 1), padding=(0, 1), bias=False)
        (conv2): Conv2d(128, 256, kernel_size=(1, 3), stride=(1, 1), padding=(0, 1), bias=False)
        (relu): ReLU(inplace=True)
        (drop): Dropout(p=0.5, inplace=False)
        (batchNorm1): BatchNorm2d(128, eps=1e-05, momentum=0.1, affine=True, track_running_stats=True)
        (batchNorm2): BatchNorm2d(256, eps=1e-05, momentum=0.1, affine=True, track_running_stats=True)
        (resampleInput): Sequential(
          (0): Conv2d(128, 256, kernel_size=(1, 1), stride=(1, 1), bias=False)
          (1): BatchNorm2d(256, eps=1e-05, momentum=0.1, affine=True, track_running_stats=True)
        )
      )
      (3): temporalResidualBlock(
        (conv1): Conv2d(256, 256, kernel_size=(1, 3), stride=(1, 1), padding=(0, 1), bias=False)
        (conv2): Conv2d(256, 256, kernel_size=(1, 3), stride=(1, 1), padding=(0, 1), bias=False)
        (relu): ReLU(inplace=True)
        (drop): Dropout(p=0.5, inplace=False)
        (batchNorm1): BatchNorm2d(256, eps=1e-05, momentum=0.1, affine=True, track_running_stats=True)
        (batchNorm2): BatchNorm2d(256, eps=1e-05, momentum=0.1, affine=True, track_running_stats=True)
      )
    )
    (residualBlocks_space): Sequential(
      (0): spatialResidualBlock(
        (conv1): Conv2d(32, 32, kernel_size=(7, 1), stride=(1, 1), padding=(3, 0), bias=False)
        (batchNorm1): BatchNorm2d(32, eps=1e-05, momentum=0.1, affine=True, track_running_stats=True)
        (conv2): Conv2d(32, 64, kernel_size=(7, 1), stride=(1, 1), padding=(3, 0), bias=False)
        (batchNorm2): BatchNorm2d(64, eps=1e-05, momentum=0.1, affine=True, track_running_stats=True)
        (relu): ReLU(inplace=True)
        (drop): Dropout(p=0.5, inplace=False)
        (resampleInput): Sequential(
          (0): Conv2d(32, 64, kernel_size=(1, 1), stride=(1, 1), bias=False)
          (1): BatchNorm2d(64, eps=1e-05, momentum=0.1, affine=True, track_running_stats=True)
        )
      )
      (1): spatialResidualBlock(
        (conv1): Conv2d(64, 64, kernel_size=(7, 1), stride=(1, 1), padding=(3, 0), bias=False)
        (batchNorm1): BatchNorm2d(64, eps=1e-05, momentum=0.1, affine=True, track_running_stats=True)
        (conv2): Conv2d(64, 128, kernel_size=(7, 1), stride=(1, 1), padding=(3, 0), bias=False)
        (batchNorm2): BatchNorm2d(128, eps=1e-05, momentum=0.1, affine=True, track_running_stats=True)
        (relu): ReLU(inplace=True)
        (drop): Dropout(p=0.5, inplace=False)
        (resampleInput): Sequential(
          (0): Conv2d(64, 128, kernel_size=(1, 1), stride=(1, 1), bias=False)
          (1): BatchNorm2d(128, eps=1e-05, momentum=0.1, affine=True, track_running_stats=True)
        )
      )
      (2): spatialResidualBlock(
        (conv1): Conv2d(128, 128, kernel_size=(7, 1), stride=(1, 1), padding=(3, 0), bias=False)
        (batchNorm1): BatchNorm2d(128, eps=1e-05, momentum=0.1, affine=True, track_running_stats=True)
        (conv2): Conv2d(128, 256, kernel_size=(7, 1), stride=(1, 1), padding=(3, 0), bias=False)
        (batchNorm2): BatchNorm2d(256, eps=1e-05, momentum=0.1, affine=True, track_running_stats=True)
        (relu): ReLU(inplace=True)
        (drop): Dropout(p=0.5, inplace=False)
        (resampleInput): Sequential(
          (0): Conv2d(128, 256, kernel_size=(1, 1), stride=(1, 1), bias=False)
          (1): BatchNorm2d(256, eps=1e-05, momentum=0.1, affine=True, track_running_stats=True)
        )
      )
      (3): spatialResidualBlock(
        (conv1): Conv2d(256, 256, kernel_size=(7, 1), stride=(1, 1), padding=(3, 0), bias=False)
        (batchNorm1): BatchNorm2d(256, eps=1e-05, momentum=0.1, affine=True, track_running_stats=True)
        (conv2): Conv2d(256, 256, kernel_size=(7, 1), stride=(1, 1), padding=(3, 0), bias=False)
        (batchNorm2): BatchNorm2d(256, eps=1e-05, momentum=0.1, affine=True, track_running_stats=True)
        (relu): ReLU(inplace=True)
        (drop): Dropout(p=0.5, inplace=False)
      )
    )
    (integrationBlock): Sequential(
      (0): Conv2d(512, 512, kernel_size=(3, 3), stride=(1, 1), padding=(1, 1))
      (1): BatchNorm2d(512, eps=1e-05, momentum=0.1, affine=True, track_running_stats=True)
      (2): Dropout(p=0.5, inplace=False)
      (3): ReLU(inplace=True)
    )
    (finalLayer): Sequential(
      (0): AdaptiveAvgPool2d(output_size=(8, 1))
      (1): Flatten(start_dim=1, end_dim=-1)
      (2): Linear(in_features=4096, out_features=128, bias=True)
    )
  )
  (encoder_k): ECG_SpatioTemporalNet(
    (firstLayer): Sequential(
      (0): Conv2d(1, 32, kernel_size=(1, 7), stride=(1, 1), padding=(0, 3))
      (1): BatchNorm2d(32, eps=1e-05, momentum=0.1, affine=True, track_running_stats=True)
      (2): ReLU(inplace=True)
      (3): MaxPool2d(kernel_size=(1, 7), stride=(1, 7), padding=0, dilation=1, ceil_mode=False)
    )
    (residualBlocks_time): Sequential(
      (0): temporalResidualBlock(
        (conv1): Conv2d(32, 32, kernel_size=(1, 3), stride=(1, 1), padding=(0, 1), bias=False)
        (conv2): Conv2d(32, 64, kernel_size=(1, 3), stride=(1, 1), padding=(0, 1), bias=False)
        (relu): ReLU(inplace=True)
        (drop): Dropout(p=0.5, inplace=False)
        (batchNorm1): BatchNorm2d(32, eps=1e-05, momentum=0.1, affine=True, track_running_stats=True)
        (batchNorm2): BatchNorm2d(64, eps=1e-05, momentum=0.1, affine=True, track_running_stats=True)
        (resampleInput): Sequential(
          (0): Conv2d(32, 64, kernel_size=(1, 1), stride=(1, 1), bias=False)
          (1): BatchNorm2d(64, eps=1e-05, momentum=0.1, affine=True, track_running_stats=True)
        )
      )
      (1): temporalResidualBlock(
        (conv1): Conv2d(64, 64, kernel_size=(1, 3), stride=(1, 1), padding=(0, 1), bias=False)
        (conv2): Conv2d(64, 128, kernel_size=(1, 3), stride=(1, 1), padding=(0, 1), bias=False)
        (relu): ReLU(inplace=True)
        (drop): Dropout(p=0.5, inplace=False)
        (batchNorm1): BatchNorm2d(64, eps=1e-05, momentum=0.1, affine=True, track_running_stats=True)
        (batchNorm2): BatchNorm2d(128, eps=1e-05, momentum=0.1, affine=True, track_running_stats=True)
        (resampleInput): Sequential(
          (0): Conv2d(64, 128, kernel_size=(1, 1), stride=(1, 1), bias=False)
          (1): BatchNorm2d(128, eps=1e-05, momentum=0.1, affine=True, track_running_stats=True)
        )
      )
      (2): temporalResidualBlock(
        (conv1): Conv2d(128, 128, kernel_size=(1, 3), stride=(1, 1), padding=(0, 1), bias=False)
        (conv2): Conv2d(128, 256, kernel_size=(1, 3), stride=(1, 1), padding=(0, 1), bias=False)
        (relu): ReLU(inplace=True)
        (drop): Dropout(p=0.5, inplace=False)
        (batchNorm1): BatchNorm2d(128, eps=1e-05, momentum=0.1, affine=True, track_running_stats=True)
        (batchNorm2): BatchNorm2d(256, eps=1e-05, momentum=0.1, affine=True, track_running_stats=True)
        (resampleInput): Sequential(
          (0): Conv2d(128, 256, kernel_size=(1, 1), stride=(1, 1), bias=False)
          (1): BatchNorm2d(256, eps=1e-05, momentum=0.1, affine=True, track_running_stats=True)
        )
      )
      (3): temporalResidualBlock(
        (conv1): Conv2d(256, 256, kernel_size=(1, 3), stride=(1, 1), padding=(0, 1), bias=False)
        (conv2): Conv2d(256, 256, kernel_size=(1, 3), stride=(1, 1), padding=(0, 1), bias=False)
        (relu): ReLU(inplace=True)
        (drop): Dropout(p=0.5, inplace=False)
        (batchNorm1): BatchNorm2d(256, eps=1e-05, momentum=0.1, affine=True, track_running_stats=True)
        (batchNorm2): BatchNorm2d(256, eps=1e-05, momentum=0.1, affine=True, track_running_stats=True)
      )
    )
    (residualBlocks_space): Sequential(
      (0): spatialResidualBlock(
        (conv1): Conv2d(32, 32, kernel_size=(7, 1), stride=(1, 1), padding=(3, 0), bias=False)
        (batchNorm1): BatchNorm2d(32, eps=1e-05, momentum=0.1, affine=True, track_running_stats=True)
        (conv2): Conv2d(32, 64, kernel_size=(7, 1), stride=(1, 1), padding=(3, 0), bias=False)
        (batchNorm2): BatchNorm2d(64, eps=1e-05, momentum=0.1, affine=True, track_running_stats=True)
        (relu): ReLU(inplace=True)
        (drop): Dropout(p=0.5, inplace=False)
        (resampleInput): Sequential(
          (0): Conv2d(32, 64, kernel_size=(1, 1), stride=(1, 1), bias=False)
          (1): BatchNorm2d(64, eps=1e-05, momentum=0.1, affine=True, track_running_stats=True)
        )
      )
      (1): spatialResidualBlock(
        (conv1): Conv2d(64, 64, kernel_size=(7, 1), stride=(1, 1), padding=(3, 0), bias=False)
        (batchNorm1): BatchNorm2d(64, eps=1e-05, momentum=0.1, affine=True, track_running_stats=True)
        (conv2): Conv2d(64, 128, kernel_size=(7, 1), stride=(1, 1), padding=(3, 0), bias=False)
        (batchNorm2): BatchNorm2d(128, eps=1e-05, momentum=0.1, affine=True, track_running_stats=True)
        (relu): ReLU(inplace=True)
        (drop): Dropout(p=0.5, inplace=False)
        (resampleInput): Sequential(
          (0): Conv2d(64, 128, kernel_size=(1, 1), stride=(1, 1), bias=False)
          (1): BatchNorm2d(128, eps=1e-05, momentum=0.1, affine=True, track_running_stats=True)
        )
      )
      (2): spatialResidualBlock(
        (conv1): Conv2d(128, 128, kernel_size=(7, 1), stride=(1, 1), padding=(3, 0), bias=False)
        (batchNorm1): BatchNorm2d(128, eps=1e-05, momentum=0.1, affine=True, track_running_stats=True)
        (conv2): Conv2d(128, 256, kernel_size=(7, 1), stride=(1, 1), padding=(3, 0), bias=False)
        (batchNorm2): BatchNorm2d(256, eps=1e-05, momentum=0.1, affine=True, track_running_stats=True)
        (relu): ReLU(inplace=True)
        (drop): Dropout(p=0.5, inplace=False)
        (resampleInput): Sequential(
          (0): Conv2d(128, 256, kernel_size=(1, 1), stride=(1, 1), bias=False)
          (1): BatchNorm2d(256, eps=1e-05, momentum=0.1, affine=True, track_running_stats=True)
        )
      )
      (3): spatialResidualBlock(
        (conv1): Conv2d(256, 256, kernel_size=(7, 1), stride=(1, 1), padding=(3, 0), bias=False)
        (batchNorm1): BatchNorm2d(256, eps=1e-05, momentum=0.1, affine=True, track_running_stats=True)
        (conv2): Conv2d(256, 256, kernel_size=(7, 1), stride=(1, 1), padding=(3, 0), bias=False)
        (batchNorm2): BatchNorm2d(256, eps=1e-05, momentum=0.1, affine=True, track_running_stats=True)
        (relu): ReLU(inplace=True)
        (drop): Dropout(p=0.5, inplace=False)
      )
    )
    (integrationBlock): Sequential(
      (0): Conv2d(512, 512, kernel_size=(3, 3), stride=(1, 1), padding=(1, 1))
      (1): BatchNorm2d(512, eps=1e-05, momentum=0.1, affine=True, track_running_stats=True)
      (2): Dropout(p=0.5, inplace=False)
      (3): ReLU(inplace=True)
    )
    (finalLayer): Sequential(
      (0): AdaptiveAvgPool2d(output_size=(8, 1))
      (1): Flatten(start_dim=1, end_dim=-1)
      (2): Linear(in_features=4096, out_features=128, bias=True)
    )
  )
)
Pre Training using 32464 ECGs
Epoch: [0][ 0/63]	Time 30.279 (30.279)	Data 25.227 (25.227)	Loss 1.0154e-01 (1.0154e-01)	Acc@1 100.00 (100.00)	Acc@5 100.00 (100.00)
Epoch: [0][20/63]	Time  0.604 ( 2.004)	Data  0.000 ( 1.202)	Loss 7.9103e+00 (7.5735e+00)	Acc@1  10.94 ( 22.43)	Acc@5  22.66 ( 35.90)
Epoch: [0][40/63]	Time  0.594 ( 1.320)	Data  0.000 ( 0.623)	Loss 8.9121e+00 (8.0228e+00)	Acc@1  17.19 ( 17.59)	Acc@5  33.59 ( 31.84)
…
