Creating Model
MoCo(
  (encoder_q): ECG_SpatioTemporalNet(
    (firstLayer): Sequential(
      (0): Conv2d(1, 32, kernel_size=(1, 7), stride=(1, 1), padding=(0, 3))
      (1): BatchNorm2d(32, eps=1e-05, momentum=0.1, affine=True, track_running_stats=True)
      (2): ReLU(inplace=True)
      (3): MaxPool2d(kernel_size=(1, 7), stride=(1, 7), padding=0, dilation=1, ceil_mode=False)
    )
    (residualBlocks_time): Sequential(
      (0): temporalResidualBlock(
        (conv1): Conv2d(32, 32, kernel_size=(1, 3), stride=(1, 1), padding=(0, 1), bias=False)
        (conv2): Conv2d(32, 64, kernel_size=(1, 3), stride=(1, 1), padding=(0, 1), bias=False)
        (relu): ReLU(inplace=True)
        (drop): Dropout(p=0.5, inplace=False)
        (batchNorm1): BatchNorm2d(32, eps=1e-05, momentum=0.1, affine=True, track_running_stats=True)
        (batchNorm2): BatchNorm2d(64, eps=1e-05, momentum=0.1, affine=True, track_running_stats=True)
        (resampleInput): Sequential(
          (0): Conv2d(32, 64, kernel_size=(1, 1), stride=(1, 1), bias=False)
          (1): BatchNorm2d(64, eps=1e-05, momentum=0.1, affine=True, track_running_stats=True)
        )
      )
      (1): temporalResidualBlock(
        (conv1): Conv2d(64, 64, kernel_size=(1, 3), stride=(1, 1), padding=(0, 1), bias=False)
        (conv2): Conv2d(64, 128, kernel_size=(1, 3), stride=(1, 1), padding=(0, 1), bias=False)
        (relu): ReLU(inplace=True)
        (drop): Dropout(p=0.5, inplace=False)
        (batchNorm1): BatchNorm2d(64, eps=1e-05, momentum=0.1, affine=True, track_running_stats=True)
        (batchNorm2): BatchNorm2d(128, eps=1e-05, momentum=0.1, affine=True, track_running_stats=True)
        (resampleInput): Sequential(
          (0): Conv2d(64, 128, kernel_size=(1, 1), stride=(1, 1), bias=False)
          (1): BatchNorm2d(128, eps=1e-05, momentum=0.1, affine=True, track_running_stats=True)
        )
      )
      (2): temporalResidualBlock(
        (conv1): Conv2d(128, 128, kernel_size=(1, 3), stride=(1, 1), padding=(0, 1), bias=False)
        (conv2): Conv2d(128, 256, kernel_size=(1, 3), stride=(1, 1), padding=(0, 1), bias=False)
        (relu): ReLU(inplace=True)
        (drop): Dropout(p=0.5, inplace=False)
        (batchNorm1): BatchNorm2d(128, eps=1e-05, momentum=0.1, affine=True, track_running_stats=True)
        (batchNorm2): BatchNorm2d(256, eps=1e-05, momentum=0.1, affine=True, track_running_stats=True)
        (resampleInput): Sequential(
          (0): Conv2d(128, 256, kernel_size=(1, 1), stride=(1, 1), bias=False)
          (1): BatchNorm2d(256, eps=1e-05, momentum=0.1, affine=True, track_running_stats=True)
        )
      )
      (3): temporalResidualBlock(
        (conv1): Conv2d(256, 256, kernel_size=(1, 3), stride=(1, 1), padding=(0, 1), bias=False)
        (conv2): Conv2d(256, 256, kernel_size=(1, 3), stride=(1, 1), padding=(0, 1), bias=False)
        (relu): ReLU(inplace=True)
        (drop): Dropout(p=0.5, inplace=False)
        (batchNorm1): BatchNorm2d(256, eps=1e-05, momentum=0.1, affine=True, track_running_stats=True)
        (batchNorm2): BatchNorm2d(256, eps=1e-05, momentum=0.1, affine=True, track_running_stats=True)
      )
    )
    (residualBlocks_space): Sequential(
      (0): spatialResidualBlock(
        (conv1): Conv2d(32, 32, kernel_size=(7, 1), stride=(1, 1), padding=(3, 0), bias=False)
        (batchNorm1): BatchNorm2d(32, eps=1e-05, momentum=0.1, affine=True, track_running_stats=True)
        (conv2): Conv2d(32, 64, kernel_size=(7, 1), stride=(1, 1), padding=(3, 0), bias=False)
        (batchNorm2): BatchNorm2d(64, eps=1e-05, momentum=0.1, affine=True, track_running_stats=True)
        (relu): ReLU(inplace=True)
        (drop): Dropout(p=0.5, inplace=False)
        (resampleInput): Sequential(
          (0): Conv2d(32, 64, kernel_size=(1, 1), stride=(1, 1), bias=False)
          (1): BatchNorm2d(64, eps=1e-05, momentum=0.1, affine=True, track_running_stats=True)
        )
      )
      (1): spatialResidualBlock(
        (conv1): Conv2d(64, 64, kernel_size=(7, 1), stride=(1, 1), padding=(3, 0), bias=False)
        (batchNorm1): BatchNorm2d(64, eps=1e-05, momentum=0.1, affine=True, track_running_stats=True)
        (conv2): Conv2d(64, 128, kernel_size=(7, 1), stride=(1, 1), padding=(3, 0), bias=False)
        (batchNorm2): BatchNorm2d(128, eps=1e-05, momentum=0.1, affine=True, track_running_stats=True)
        (relu): ReLU(inplace=True)
        (drop): Dropout(p=0.5, inplace=False)
        (resampleInput): Sequential(
          (0): Conv2d(64, 128, kernel_size=(1, 1), stride=(1, 1), bias=False)
          (1): BatchNorm2d(128, eps=1e-05, momentum=0.1, affine=True, track_running_stats=True)
        )
      )
      (2): spatialResidualBlock(
        (conv1): Conv2d(128, 128, kernel_size=(7, 1), stride=(1, 1), padding=(3, 0), bias=False)
        (batchNorm1): BatchNorm2d(128, eps=1e-05, momentum=0.1, affine=True, track_running_stats=True)
        (conv2): Conv2d(128, 256, kernel_size=(7, 1), stride=(1, 1), padding=(3, 0), bias=False)
        (batchNorm2): BatchNorm2d(256, eps=1e-05, momentum=0.1, affine=True, track_running_stats=True)
        (relu): ReLU(inplace=True)
        (drop): Dropout(p=0.5, inplace=False)
        (resampleInput): Sequential(
          (0): Conv2d(128, 256, kernel_size=(1, 1), stride=(1, 1), bias=False)
          (1): BatchNorm2d(256, eps=1e-05, momentum=0.1, affine=True, track_running_stats=True)
        )
      )
      (3): spatialResidualBlock(
        (conv1): Conv2d(256, 256, kernel_size=(7, 1), stride=(1, 1), padding=(3, 0), bias=False)
        (batchNorm1): BatchNorm2d(256, eps=1e-05, momentum=0.1, affine=True, track_running_stats=True)
        (conv2): Conv2d(256, 256, kernel_size=(7, 1), stride=(1, 1), padding=(3, 0), bias=False)
        (batchNorm2): BatchNorm2d(256, eps=1e-05, momentum=0.1, affine=True, track_running_stats=True)
        (relu): ReLU(inplace=True)
        (drop): Dropout(p=0.5, inplace=False)
      )
    )
    (integrationBlock): Sequential(
      (0): Conv2d(512, 512, kernel_size=(3, 3), stride=(1, 1), padding=(1, 1))
      (1): BatchNorm2d(512, eps=1e-05, momentum=0.1, affine=True, track_running_stats=True)
      (2): Dropout(p=0.5, inplace=False)
      (3): ReLU(inplace=True)
    )
    (finalLayer): Sequential(
      (0): AdaptiveAvgPool2d(output_size=(8, 1))
      (1): Flatten(start_dim=1, end_dim=-1)
      (2): Linear(in_features=4096, out_features=128, bias=True)
    )
  )
  (encoder_k): ECG_SpatioTemporalNet(
    (firstLayer): Sequential(
      (0): Conv2d(1, 32, kernel_size=(1, 7), stride=(1, 1), padding=(0, 3))
      (1): BatchNorm2d(32, eps=1e-05, momentum=0.1, affine=True, track_running_stats=True)
      (2): ReLU(inplace=True)
      (3): MaxPool2d(kernel_size=(1, 7), stride=(1, 7), padding=0, dilation=1, ceil_mode=False)
    )
    (residualBlocks_time): Sequential(
      (0): temporalResidualBlock(
        (conv1): Conv2d(32, 32, kernel_size=(1, 3), stride=(1, 1), padding=(0, 1), bias=False)
        (conv2): Conv2d(32, 64, kernel_size=(1, 3), stride=(1, 1), padding=(0, 1), bias=False)
        (relu): ReLU(inplace=True)
        (drop): Dropout(p=0.5, inplace=False)
        (batchNorm1): BatchNorm2d(32, eps=1e-05, momentum=0.1, affine=True, track_running_stats=True)
        (batchNorm2): BatchNorm2d(64, eps=1e-05, momentum=0.1, affine=True, track_running_stats=True)
        (resampleInput): Sequential(
          (0): Conv2d(32, 64, kernel_size=(1, 1), stride=(1, 1), bias=False)
          (1): BatchNorm2d(64, eps=1e-05, momentum=0.1, affine=True, track_running_stats=True)
        )
      )
      (1): temporalResidualBlock(
        (conv1): Conv2d(64, 64, kernel_size=(1, 3), stride=(1, 1), padding=(0, 1), bias=False)
        (conv2): Conv2d(64, 128, kernel_size=(1, 3), stride=(1, 1), padding=(0, 1), bias=False)
        (relu): ReLU(inplace=True)
        (drop): Dropout(p=0.5, inplace=False)
        (batchNorm1): BatchNorm2d(64, eps=1e-05, momentum=0.1, affine=True, track_running_stats=True)
        (batchNorm2): BatchNorm2d(128, eps=1e-05, momentum=0.1, affine=True, track_running_stats=True)
        (resampleInput): Sequential(
          (0): Conv2d(64, 128, kernel_size=(1, 1), stride=(1, 1), bias=False)
          (1): BatchNorm2d(128, eps=1e-05, momentum=0.1, affine=True, track_running_stats=True)
        )
      )
      (2): temporalResidualBlock(
        (conv1): Conv2d(128, 128, kernel_size=(1, 3), stride=(1, 1), padding=(0, 1), bias=False)
        (conv2): Conv2d(128, 256, kernel_size=(1, 3), stride=(1, 1), padding=(0, 1), bias=False)
        (relu): ReLU(inplace=True)
        (drop): Dropout(p=0.5, inplace=False)
        (batchNorm1): BatchNorm2d(128, eps=1e-05, momentum=0.1, affine=True, track_running_stats=True)
        (batchNorm2): BatchNorm2d(256, eps=1e-05, momentum=0.1, affine=True, track_running_stats=True)
        (resampleInput): Sequential(
          (0): Conv2d(128, 256, kernel_size=(1, 1), stride=(1, 1), bias=False)
          (1): BatchNorm2d(256, eps=1e-05, momentum=0.1, affine=True, track_running_stats=True)
        )
      )
      (3): temporalResidualBlock(
        (conv1): Conv2d(256, 256, kernel_size=(1, 3), stride=(1, 1), padding=(0, 1), bias=False)
        (conv2): Conv2d(256, 256, kernel_size=(1, 3), stride=(1, 1), padding=(0, 1), bias=False)
        (relu): ReLU(inplace=True)
        (drop): Dropout(p=0.5, inplace=False)
        (batchNorm1): BatchNorm2d(256, eps=1e-05, momentum=0.1, affine=True, track_running_stats=True)
        (batchNorm2): BatchNorm2d(256, eps=1e-05, momentum=0.1, affine=True, track_running_stats=True)
      )
    )
    (residualBlocks_space): Sequential(
      (0): spatialResidualBlock(
        (conv1): Conv2d(32, 32, kernel_size=(7, 1), stride=(1, 1), padding=(3, 0), bias=False)
        (batchNorm1): BatchNorm2d(32, eps=1e-05, momentum=0.1, affine=True, track_running_stats=True)
        (conv2): Conv2d(32, 64, kernel_size=(7, 1), stride=(1, 1), padding=(3, 0), bias=False)
        (batchNorm2): BatchNorm2d(64, eps=1e-05, momentum=0.1, affine=True, track_running_stats=True)
        (relu): ReLU(inplace=True)
        (drop): Dropout(p=0.5, inplace=False)
        (resampleInput): Sequential(
          (0): Conv2d(32, 64, kernel_size=(1, 1), stride=(1, 1), bias=False)
          (1): BatchNorm2d(64, eps=1e-05, momentum=0.1, affine=True, track_running_stats=True)
        )
      )
      (1): spatialResidualBlock(
        (conv1): Conv2d(64, 64, kernel_size=(7, 1), stride=(1, 1), padding=(3, 0), bias=False)
        (batchNorm1): BatchNorm2d(64, eps=1e-05, momentum=0.1, affine=True, track_running_stats=True)
        (conv2): Conv2d(64, 128, kernel_size=(7, 1), stride=(1, 1), padding=(3, 0), bias=False)
        (batchNorm2): BatchNorm2d(128, eps=1e-05, momentum=0.1, affine=True, track_running_stats=True)
        (relu): ReLU(inplace=True)
        (drop): Dropout(p=0.5, inplace=False)
        (resampleInput): Sequential(
          (0): Conv2d(64, 128, kernel_size=(1, 1), stride=(1, 1), bias=False)
          (1): BatchNorm2d(128, eps=1e-05, momentum=0.1, affine=True, track_running_stats=True)
        )
      )
      (2): spatialResidualBlock(
        (conv1): Conv2d(128, 128, kernel_size=(7, 1), stride=(1, 1), padding=(3, 0), bias=False)
        (batchNorm1): BatchNorm2d(128, eps=1e-05, momentum=0.1, affine=True, track_running_stats=True)
        (conv2): Conv2d(128, 256, kernel_size=(7, 1), stride=(1, 1), padding=(3, 0), bias=False)
        (batchNorm2): BatchNorm2d(256, eps=1e-05, momentum=0.1, affine=True, track_running_stats=True)
        (relu): ReLU(inplace=True)
        (drop): Dropout(p=0.5, inplace=False)
        (resampleInput): Sequential(
          (0): Conv2d(128, 256, kernel_size=(1, 1), stride=(1, 1), bias=False)
          (1): BatchNorm2d(256, eps=1e-05, momentum=0.1, affine=True, track_running_stats=True)
        )
      )
      (3): spatialResidualBlock(
        (conv1): Conv2d(256, 256, kernel_size=(7, 1), stride=(1, 1), padding=(3, 0), bias=False)
        (batchNorm1): BatchNorm2d(256, eps=1e-05, momentum=0.1, affine=True, track_running_stats=True)
        (conv2): Conv2d(256, 256, kernel_size=(7, 1), stride=(1, 1), padding=(3, 0), bias=False)
        (batchNorm2): BatchNorm2d(256, eps=1e-05, momentum=0.1, affine=True, track_running_stats=True)
        (relu): ReLU(inplace=True)
        (drop): Dropout(p=0.5, inplace=False)
      )
    )
    (integrationBlock): Sequential(
      (0): Conv2d(512, 512, kernel_size=(3, 3), stride=(1, 1), padding=(1, 1))
      (1): BatchNorm2d(512, eps=1e-05, momentum=0.1, affine=True, track_running_stats=True)
      (2): Dropout(p=0.5, inplace=False)
      (3): ReLU(inplace=True)
    )
    (finalLayer): Sequential(
      (0): AdaptiveAvgPool2d(output_size=(8, 1))
      (1): Flatten(start_dim=1, end_dim=-1)
      (2): Linear(in_features=4096, out_features=128, bias=True)
    )
  )
)
Traceback (most recent call last):
  File "main.py", line 172, in <module>
    main()
  File "main.py", line 161, in main
    mp.spawn(main_moco.main_worker, nprocs=ngpus_per_node, args=(ngpus_per_node, args))
  File "/home/sci/jbergquist/python_dev_env/lib/python3.7/site-packages/torch/multiprocessing/spawn.py", line 240, in spawn
    return start_processes(fn, args, nprocs, join, daemon, start_method='spawn')
…
